models/price_classifier.pt (torch, 411698 bytes, 18 tensors)

gru.weight_ih_l0 f4 [192, 5]
0	0xbdea6dfc	-0.11446759
1	0x3df7b62e	0.12095295
2	0x3c21aba0	0.009867579
3	0xbdd6c5ac	-0.10486922
4	0x3c4f4480	0.012650609
5	0x3daffd72	0.08593263
6	0x3c5453a0	0.012959391
7	0x3dde32c0	0.108495235
8	0x3dd90c86	0.10598092
9	0xbd518da0	-0.051160455
10	0x3da11d74	0.07866946
11	0xbd98a900	-0.07454109
12	0x3db6076e	0.08888136
13	0xbd98b246	-0.07455878
14	0xbb7ca100	-0.0038548112
15	0xbd92706e	-0.071503505
16	0x3ce6f640	0.028193593
17	0x3d2d076c	0.042243406
18	0xbd51b988	-0.051202327
19	0x3ce99c58	0.028516933
20	0xbc820de8	-0.015875772
21	0xbde44ca0	-0.111474276
22	0x3dc276a8	0.09495288
23	0x3c88a790	0.016681463
24	0x3daaff22	0.08349444
25	0xbca9a918	-0.020710513
26	0x3ce846b0	0.028354019
27	0xbdc80246	-0.097660586
28	0x3dadc2f0	0.08484447
29	0x3df5b712	0.119978085
30	0xbbe7ce80	-0.0070741773
31	0x3dbe1a40	0.092823505
32	0xbde53264	-0.11191252
33	0x3db60a8c	0.088887304
34	0xbd800c7e	-0.06252383
35	0xbd96d9fa	-0.073657945
36	0x3cf9b690	0.03048256
37	0xbdc653ee	-0.09683977
38	0xbdb86796	-0.090041324
39	0xbd735ef0	-0.05941671
40	0xbdaf78cc	-0.08567962
41	0xbd1134e4	-0.03545083
42	0x3d94c660	0.072643995
43	0x3b116fc0	0.0022191852
44	0x3df3a5ca	0.11896856
45	0x3dc0a1f0	0.09405887
46	0x3df98556	0.12183635
47	0x3daa154a	0.08304842
48	0x3d23d4dc	0.03999792
49	0xbd8e11ee	-0.069370136
50	0xbd9f3ba2	-0.07775046
51	0xbded1d94	-0.11577907
52	0x3dda66a0	0.106641054
53	0x3cfa72a8	0.03057225
54	0x3da9d756	0.08293025
55	0x3c904078	0.017608866
56	0xbdfd9a2e	-0.12382923
57	0x3daa25f4	0.0830802
58	0x3dc4a0a6	0.09600954
59	0xbd815bec	-0.06316361
60	0x3d2280c4	0.03967358
61	0x3d9906b0	0.07471979
62	0x3ccf1f40	0.025283456
63	0x3d95520a	0.07291038
64	0xbdb5f8e8	-0.08885366
65	0x3dcaf2f8	0.09909624
66	0x3c9c4998	0.019078061
67	0x3d387bb0	0.045039833
68	0xbd659e8c	-0.056059405
69	0x3d04960c	0.03236966
70	0x3dd5b5e8	0.104350865
71	0x3d6f00c8	0.058350354
72	0xbc9ef3e0	-0.019403398
73	0xbd555d94	-0.052091196
74	0xbdbbf5cc	-0.091777414
75	0x3d8ae550	0.06782019
76	0x3bcbc960	0.006219074
77	0xbdc0f51e	-0.094217524
78	0xbdbe83b2	-0.09302463
79	0x3d9040c4	0.07043603
80	0x3c7cf8c0	0.015440166
81	0x3d55f3b8	0.05223438
82	0xbd468b54	-0.048472717
83	0xb9801000	-0.00024425983
84	0x3da4527a	0.08023544
85	0x3dede5f8	0.11616129
86	0xbd7caad0	-0.061686337
87	0x3df1808a	0.11792095
88	0x3dd0af3a	0.10189672
89	0xbbc53560	-0.0060183257
90	0xbc6a4ff0	-0.014301285
91	0x3cecb8e0	0.028896749
92	0x3d6b06d0	0.057379544
93	0xbda49280	-0.08035755
94	0xbd2dea8c	-0.04246001
95	0xbdc2e3a8	-0.09516078
96	0xbdba8242	-0.09106876
97	0xbce58af0	-0.028020352
98	0xbdcbb07e	-0.099457726
99	0xbda7ebde	-0.08199285
100	0xbd81abe6	-0.06331615
101	0xbda989ae	-0.082782134
102	0x3d74ae38	0.05973646
103	0xbca484b8	-0.020082816
104	0x3c34f870	0.01104556
105	0x3df0e576	0.11762516
106	0x3dc96aaa	0.09834798
107	0x3da92a60	0.082600355
108	0x3dd434f0	0.103616595
109	0x3bce7780	0.0063008666
110	0x3d6099f4	0.05483432
111	0x3dbd8d0a	0.09255417
112	0x3dd74ab4	0.10512295
113	0x3db30ee6	0.08743076
114	0x3db621b0	0.08893144
115	0xbc5b8bd0	-0.013400033
116	0xbd4064c4	-0.046971098
117	0xbd24370c	-0.04009156
118	0x3da0e396	0.078559086
119	0x3d368a30	0.04456538
120	0xbdf457b4	-0.119307905
121	0xbc905280	-0.017617464
122	0xbde14cce	-0.110009775
123	0x3dcd6ab6	0.10030119
124	0xbdd372ca	-0.10324629
125	0x3df606be	0.12013005
126	0x3dbbdb6a	0.09172709
127	0x3dc26164	0.09491232
128	0x3c9ebcb0	0.019377083
129	0xbdfe2328	-0.12409049
130	0x3c9c33c8	0.01906766
131	0xbdf06ee8	-0.11739904
132	0xbd959f94	-0.07305828
133	0x3dbc7dfc	0.09203717
134	0x3de1f258	0.110325515
135	0x3a866200	0.0010252595
136	0xbd90d91a	-0.07072659
137	0x3dc6ef28	0.09713584
138	0x3dc89772	0.09794511
139	0xbdb1f1e4	-0.08688715
140	0xbce50540	-0.027956605
141	0x3de00f16	0.109403774
142	0x3d4e4eac	0.050367996
143	0xbdd884b8	-0.10572189
144	0x3cf3ca90	0.029759675
145	0x3da2e3ce	0.079536065
146	0x3de776ce	0.11301957
147	0x3d87533e	0.06607674
148	0xbd2c9004	-0.04212953
149	0x3cf14c90	0.029455453
150	0xbd40af1c	-0.047041997
151	0xbdab9a5a	-0.083790496
152	0x3da2f35c	0.07956573
153	0x3d9b74fa	0.07590671
154	0xbd8fa58e	-0.07013999
155	0x3ddb9c6a	0.10723193
156	0xbd882d5e	-0.06649278
157	0x3c64b580	0.013959289
158	0xbd8eaab6	-0.06966154
159	0x3dfa2342	0.12213756
160	0xbd8d14a4	-0.068887025
161	0xbdc0b190	-0.09408867
162	0xba8f4680	-0.0010931045
163	0xbcecf2c0	-0.028924346
164	0x3dfbf142	0.12301876
165	0xbdfc9e06	-0.12334828
166	0x3d517160	0.051133513
167	0xbd83e6e0	-0.0644052
168	0x3d3f2804	0.04666902
169	0x3d29072c	0.041266605
170	0x3ca29f50	0.019851357
171	0xbd88e2da	-0.066838935
172	0x3dea12f8	0.11429399
173	0xbca4da90	-0.02012375
174	0x3d8eb906	0.06968884
175	0x3df846ee	0.12122904
176	0x3ce4ef58	0.02794616
177	0xbd8556c4	-0.0651069
178	0xbdd61b36	-0.10454409
179	0xbc785ae0	-0.015158385
180	0x3dc01484	0.09378913
181	0xbc672310	-0.014107481
182	0xbd8a6488	-0.06757456
183	0xbb3a2280	-0.0028401911
184	0x3df80efe	0.121122345
185	0x3d306520	0.04306519
186	0x3d1b0ca4	0.037853852
187	0x3dfa9188	0.12234789
188	0xbde990d6	-0.114045784
189	0x3d090574	0.033452466
190	0x3d8de350	0.06928122
191	0x3dce7188	0.10080248
192	0x3dae455e	0.085093245
193	0xbc029f20	-0.007972509
194	0xbd82dc9c	-0.06389734
195	0x3cb37340	0.021905541
196	0xbd99c372	-0.07507981
197	0xbd8d5aac	-0.0690206
198	0xbdbc8f78	-0.09207052
199	0x3de1273c	0.109938115
200	0x3dc98144	0.098391086
201	0xbdd83ef2	-0.10558881
202	0x3bf8a360	0.007587835
203	0x3dea6668	0.11445314
204	0xbc9909f0	-0.018681496
205	0x3dba1270	0.09085548
206	0xbdc23c40	-0.09484148
207	0x3ce447d0	0.027866274
208	0x3cf189d0	0.02948466
209	0xbd034e70	-0.032057226
210	0x3dccf4fa	0.10007663
211	0xbdf30eba	-0.11868043
212	0x3cfad7e0	0.030620515
213	0x3d16c468	0.0368084
214	0xbca9c9a0	-0.020726025
215	0xbdd95772	-0.10612382
216	0xbccc55b8	-0.024943218
217	0xbd0309fc	-0.031991944
218	0xbd209d7c	-0.03921269
219	0x3dd1d402	0.102455154
220	0x3df74c5c	0.12075111
221	0xbc0723d0	-0.008248284
222	0x3d2d9fe4	0.04238881
223	0x3db19154	0.08670297
224	0xbcb4f530	-0.02208957
225	0x3dad7162	0.08468892
226	0xbdbbf0ac	-0.09176764
227	0x3d4752d4	0.048662975
228	0xbd745f14	-0.059660986
229	0xbcf89a70	-0.030347079
230	0xbdc67162	-0.09689595
231	0x3d779b84	0.060451046
232	0xbc001200	-0.007816792
233	0x3dcdea9e	0.10054515
234	0x3df79474	0.12088862
235	0x3d23e7a8	0.040015846
236	0xbd1d1c38	-0.03835699
237	0x3c981640	0.018565297
238	0x3da1626c	0.078801006
239	0xbd937d92	-0.07201685
240	0x3dc81c58	0.09771031
241	0x3ce76dd8	0.02825062
242	0x3c47c7a0	0.01219359
243	0x3dc776fc	0.09739491
244	0xbd8891d6	-0.06668441
245	0xbd0462cc	-0.032320783
246	0x3d403918	0.04692945
247	0x3d0fbbc4	0.035091177
248	0x3de05432	0.10953559
249	0x3cf51d60	0.029921234
250	0xbdda324e	-0.10654126
251	0x3d739e08	0.059476882
252	0x3deca758	0.11555356
253	0xbd643208	-0.055711776
254	0xbd0b850c	-0.03406243
255	0xbdce6866	-0.10078506

gru.weight_hh_l0 f4 [192, 64]
0	0xbd562080	-0.05227709
1	0x3de0941a	0.10965748
2	0x3d6528f4	0.05594726
3	0x3debe556	0.11518352
4	0xbd27462c	-0.040838405
5	0x3cd8c140	0.026459336
6	0x3d879af4	0.06621352
7	0xbd485b7c	-0.04891537
8	0xbd8373c6	-0.064185664
9	0xbc78b850	-0.015180662
10	0x3ca5fe70	0.020262927
11	0x3bc28700	0.0059365034
12	0x3d130784	0.03589584
13	0xbd5610ec	-0.05226223
14	0x3dd16d7e	0.10225962
15	0x3df3a7ea	0.118972614
16	0x3d88106a	0.06643756
17	0x3d3b79dc	0.04577051
18	0xbdce77e8	-0.10081464
19	0xbdda7b1a	-0.10668011
20	0x3d0e65a4	0.0347649
21	0xbdb71b5c	-0.08940765
22	0xbca4a540	-0.020098329
23	0xbdd5ac76	-0.10433285
24	0xbde721ac	-0.11285719
25	0xbd32dfdc	-0.04367052
26	0x3dc8bf3c	0.098021
27	0xbd88e63a	-0.06684537
28	0x3d83662c	0.06415972
29	0xbc82b5a0	-0.015955746
30	0x3d2dc874	0.042427495
31	0xbdfd0b2e	-0.12355648
32	0xbd454280	-0.048159122
33	0xbce912f0	-0.028451413
34	0x3df02396	0.117255375
35	0xbdda867c	-0.10670182
36	0xbc28a6d0	-0.010293677
37	0x3c3d06c0	0.011537254
38	0x3c8cce40	0.017188191
39	0x3df5b266	0.119969174
40	0xbdf8026c	-0.12109837
41	0xbdeaf052	-0.11471619
42	0x3dfadbd2	0.12248959
43	0xbc8214e0	-0.015879095
44	0xbdc62cc4	-0.09676507
45	0xbd87a38e	-0.066229925
46	0x3d8ac51c	0.06775877
47	0xbd2fc4ec	-0.04291241
48	0x3d861190	0.065463185
49	0xbc07b710	-0.008283392
50	0x3d51355c	0.051076278
51	0x3de0008c	0.10937604
52	0x3dcf6330	0.101263404
53	0xbc871ee0	-0.016494215
54	0x3dd5df04	0.104429275
55	0x3ded902e	0.11599766
56	0x3cc1dcb0	0.023664802
57	0xbd908bfa	-0.070579484
58	0x3ddc6ed0	0.10763323
59	0xbd3e77c8	-0.04650095
60	0x3d4403a8	0.04785505
61	0x3ca644a8	0.02029641
62	0xbdd7e22c	-0.10541186
63	0xbda9f206	-0.082981154
64	0x3da46eca	0.08028944
65	0xbdc91faa	-0.098204926
66	0x3d75561c	0.059896573
67	0xbdad6df6	-0.08468239
68	0x3dbec4f6	0.09314911
69	0xbdf1438c	-0.11780462
70	0xbdbe87ae	-0.093032226
71	0xbd86e626	-0.06586866
72	0x3d05e2c0	0.03268695
73	0x3920d800	0.00015339255
74	0xbd2cfc1c	-0.042232618
75	0x3d6bbe50	0.057554543
76	0x3df95824	0.121750146
77	0xbd903b66	-0.07042579
78	0x3bda7ca0	0.0066676885
79	0xbcfc5678	-0.03080295
80	0x3d753ebc	0.05987428
81	0x3d725e80	0.059172153
82	0x3ced0760	0.02893418
83	0x3dc6d35e	0.09708284
84	0xbde5784a	-0.11204584
85	0x3d447eac	0.047972366
86	0xbdcfc17e	-0.101443276
87	0x3ce2cda8	0.027685955
88	0x3dee25a2	0.11628272
89	0xbd7a8be4	-0.061168566
90	0x3dfc871a	0.12330456
91	0x3d63a4e8	0.05557719
92	0x3df99264	0.12186125
93	0x3c3cc1c0	0.011520803
94	0xbd87520c	-0.06607446
95	0xbd9f10cc	-0.077668756
96	0xbccded00	-0.025137424
97	0xbddf6b92	-0.10909189
98	0xbd10d5e8	-0.035360247
99	0xbbc81f20	-0.006107226
100	0xbaf1d700	-0.0018450916
101	0x3dd3dcfa	0.10344882
102	0xbd823336	-0.06357424
103	0x3d22b44c	0.039722726
104	0xbd7e025c	-0.06201397
105	0xbd053a54	-0.03252633
106	0xbcaeaff0	-0.021324128
107	0xbde13bcc	-0.109977335
108	0xbd85bb64	-0.065298826
109	0xbdaf420a	-0.08557518
110	0x3d292d60	0.04130304
111	0x3d024c28	0.03181091
112	0xbde02250	-0.109440446
113	0xbc6a1160	-0.014286369
114	0x3d676a8c	0.056498095
115	0xbd876f74	-0.06613055
116	0x3d581f58	0.052764267
117	0xbcf0f570	-0.029413909
118	0xbdef800e	-0.11694346
119	0x3ddd13fc	0.10794827
120	0x3d2bc7ac	0.04193847
121	0xbaf0a080	-0.001835838
122	0xbd51d024	-0.05122389
123	0xbcfdd7d8	-0.030986711
124	0xbd947840	-0.07249498
125	0xbc1bd030	-0.009510085
126	0x3d9289f4	0.07155219
127	0x3df26ab2	0.11836757
128	0x3d771528	0.06032291
129	0x3dee7eb2	0.11645259
130	0xbcbab770	-0.022792548
131	0x3cb865f8	0.02250956
132	0x3d8b8740	0.06812906
133	0x3d9f2a74	0.07771769
134	0xbca7ed60	-0.020498931
135	0xbc4e1ce0	-0.0125801265
136	0xbd72f830	-0.05931872
137	0xbde891fc	-0.11355969
138	0xbbb83c60	-0.0056224316
139	0xbd81308a	-0.06308086
140	0x3afd1000	0.0019307137
141	0x3d8458aa	0.06462224
142	0xbccc94f0	-0.024973363
143	0xbddcf8ae	-0.107896194
144	0x3dc5172e	0.09623562
145	0x3d301b68	0.042994887
146	0x3dcec4f2	0.10096158
147	0x3bf27240	0.0073988736
148	0xbcc38ee8	-0.023871854
149	0x3d349870	0.04409069
150	0xbdbdfbc4	-0.09276536
151	0xbc81e2b8	-0.015855178
152	0xbd5681c8	-0.052369863
153	0x3df1f298	0.11813849
154	0xbd8d732e	-0.069067344
155	0xbdd73380	-0.1050787
156	0xbd42c85c	-0.04755436
157	0xbdc3f518	-0.09568232
158	0xbd474d98	-0.048657984
159	0xbce2af98	-0.02767162
160	0xbd4a9328	-0.049456745
161	0xbd577e80	-0.052610874
162	0xbd015024	-0.03157057
163	0x3dd9cbfe	0.106346115
164	0x3d8c82e8	0.06860906
165	0xbc928730	-0.017886728
166	0xbb9ed3c0	-0.00484702
167	0x3dd1e3ac	0.10248503
168	0xbde84670	-0.1134156
169	0x3d34a6b8	0.044104308
170	0xbdd3e4c4	-0.10346368
171	0xbdb1db54	-0.08684412
172	0x3daab85a	0.083359435
173	0x3d9c2e9c	0.076260775
174	0x3cd580c0	0.02606237
175	0xbc92ca80	-0.017918825
176	0xbc1b5ba0	-0.009482294
177	0x3df362cc	0.118840784
178	0xbd405448	-0.046955377
179	0xbd83b326	-0.06430654
180	0x3c76f0d0	0.015072063
181	0x3df28e96	0.11843602
182	0xbdc4b1de	-0.09604238
183	0x3d9a5980	0.07536602
184	0xbca34a80	-0.019932985
185	0xbc806a88	-0.015675798
186	0x3daa883a	0.083267644
187	0x3df3afc6	0.118987605
188	0xbdf86bd8	-0.121299446
189	0xbd60d4d0	-0.054890454
190	0xbdc866d2	-0.097852364
191	0xbd3e0194	-0.046388224
192	0xbdc5d628	-0.09659988
193	0xbde0c7ee	-0.109756336
194	0x3da27172	0.07931794
195	0x3d606160	0.054780364
196	0x3dd845fe	0.10560225
197	0xbbd09960	-0.00636594
198	0xbcb46a78	-0.022023425
199	0xb9b42800	-0.00034362078
200	0xbdb940d8	-0.09045571
201	0xbd51dd08	-0.051236182
202	0x3da7d0e6	0.08194141
203	0x3d587fec	0.05285637
204	0x3cd9cb28	0.02658613
205	0x3cc1afc8	0.02364339
206	0xbd252c58	-0.040325493
207	0xbdfe5b0e	-0.12419711
208	0x3d19c6a4	0.037542954
209	0x3c0cb090	0.008587018
210	0xbd73caac	-0.059519455
211	0xb9dfe400	-0.00042703748
212	0xbdf90d2e	-0.12160717
213	0x3d05d0a0	0.032669663
214	0x3deda2b0	0.11603296
215	0x3d918682	0.071057335
216	0xbca127b0	-0.019672245
217	0x3d9e5c94	0.077325016
218	0xbce3c378	-0.027803168
219	0xbd9cacaa	-0.076501206
220	0x3de44208	0.11145407
221	0x3de472c8	0.11154705
222	0x3df77c7c	0.120842904
223	0x3ce3d5b0	0.027811855
224	0x3dc9ca2a	0.09853013
225	0x3d9eb67c	0.0774965
226	0x3dbd646e	0.09247671
227	0xbde540b8	-0.11193985
228	0x3b826940	0.003979832
229	0xbd8ce502	-0.06879617
230	0xbdad4a38	-0.08461422
231	0x3d7ad858	0.061241478
232	0x3dbc8270	0.092045665
233	0x3c9b53f8	0.018960938
234	0x3dc458b6	0.09587233
235	0x3d434f68	0.04768315
236	0x3d64a27c	0.05581902
237	0x3c874880	0.016514063
238	0xbbf09ea0	-0.0073431283
239	0xbda3e796	-0.08003156
240	0x3cc3d0e0	0.02390331
241	0x3dc5ed3a	0.09664388
242	0xbdd4d190	-0.103915334
243	0x3dc5f86a	0.09666522
244	0xbde90f3c	-0.11379859
245	0xbdff1a08	-0.12456137
246	0xbc46ceb0	-0.012134239
247	0xbdd72782	-0.105055824
248	0x3c6a0420	0.01428321
249	0xbd0aa31c	-0.03384696
250	0xbd9439ea	-0.07237609
251	0xbdfa7838	-0.12229961
252	0xbd2b23c8	-0.04178217
253	0x3dd3f356	0.10349147
254	0x3d916c3a	0.07100721
255	0x3d0a974c	0.033835694

gru.bias_ih_l0 f4 [192]
0	0xbdc6f306	-0.09714322
1	0xbbd882e0	-0.0066073984
2	0x3da33884	0.07969764
3	0x3cf20a78	0.029546008
4	0xbd5f9f6c	-0.054595396
5	0xbde7a07c	-0.11309907
6	0x3b1bde00	0.0023783445
7	0x3cce7368	0.025201514
8	0xbc72e910	-0.014826074
9	0xbd149f14	-0.03628452
10	0xbdb67ff2	-0.089111224
11	0x3ddf51ee	0.10904299
12	0x3c8dae40	0.017295003
13	0x3dd0c774	0.10194293
14	0x3dacc8f8	0.08436769
15	0xbdd7f72c	-0.10545191
16	0x3d6c2594	0.057653025
17	0xbcc6c6a0	-0.024264634
18	0xbcf76a80	-0.03020215
19	0xbd910c22	-0.07082392
20	0xbc238810	-0.00998117
21	0x3dfebe50	0.12438643
22	0xbd7a4b74	-0.061107114
23	0x3d3f83c0	0.046756506
24	0xbc149400	-0.009068489
25	0xbd9ac7a0	-0.07557607
26	0x3d5dfe14	0.054197386
27	0x3d9813e8	0.07425672
28	0xbd86b352	-0.065771714
29	0xbb915f00	-0.0044363737
30	0xbdbce0f0	-0.09222591
31	0xbcf3f488	-0.029779688
32	0x3b81e0a0	0.003963545
33	0xbdde13d8	-0.10843629
34	0xbdd01932	-0.101610556
35	0xbddbee24	-0.10738781
36	0xbc21c780	-0.009874225
37	0x3cea89f0	0.028630227
38	0x3cca7ea8	0.024718598
39	0xbda20e38	-0.07912868
40	0x3cca4640	0.024691701
41	0xbde2cc64	-0.11074141
42	0x3d6c9fac	0.057769462
43	0xbd87b6ae	-0.0662664
44	0x3d6a610c	0.057221457
45	0x3dde8ce0	0.108667135
46	0x3db871b6	0.09006064
47	0x3d8119ec	0.06303772
48	0x3d8b4a52	0.06801285
49	0xbd77b7c4	-0.060477987
50	0x3d829adc	0.06377193
51	0x3de5fa06	0.11229329
52	0x3d8b0b28	0.06789237
53	0xbd432b98	-0.047648996
54	0xbdc0f722	-0.09422137
55	0xbd432e20	-0.04765141
56	0xbc1c35b0	-0.0095342845
57	0x3d94fef8	0.07275194
58	0x3cbb09a8	0.022831753
59	0x3d90e844	0.07075551
60	0xbdd11ce2	-0.10210587
61	0x3da76232	0.08173026
62	0x3dc8656e	0.09784971
63	0x3defa592	0.11701502
64	0x3d50ad70	0.050946653
65	0x3dca5c06	0.09880833
66	0xbdf14593	-0.11780848
67	0xbdac652c	-0.084177345
68	0xbc8a9468	-0.016916469
69	0xbd42e178	-0.047578305
70	0x3d90499a	0.070452884
71	0x3dbde6fa	0.09272571
72	0x3da7e292	0.08197512
73	0x3dee882a	0.11647065
74	0x3db124c2	0.08649589
75	0xbd642480	-0.05569887
76	0xbb750ac0	-0.003739044
77	0x3d652a38	0.055948466
78	0xbdbdd15e	-0.09268449
79	0x3c39e100	0.011345148
80	0x3dc4d410	0.0961076
81	0xbd85ec91	-0.06539262
82	0xbd697b8c	-0.05700259
83	0xbbf9a055	-0.00761799
84	0xbdc01f5c	-0.09380981
85	0x3d3abbc8	0.04558924
86	0xbda28606	-0.07935719
87	0x3d91756a	0.07102473
88	0xbda42032	-0.08013953
89	0x3d764150	0.06012088
90	0x3dfab3cc	0.12241325
91	0x3d02e6e0	0.03195846
92	0xbda873bc	-0.082251996
93	0xbd2e8aa8	-0.0426127
94	0x3d874492	0.066048756
95	0xbc3e3100	-0.011608362
96	0x3db53d00	0.088495255
97	0x3cbfd7c8	0.023418322
98	0x3c92ff20	0.017943919
99	0xbd8aa4c8	-0.06769711
100	0x3d8a2874	0.06745997
101	0xbcafbdc0	-0.021452785
102	0xbdc5d8a0	-0.096604586
103	0x3b322780	0.0027184188
104	0xbd3ab404	-0.045581833
105	0xbd805d40	-0.06267786
106	0xbdb0182a	-0.08598359
107	0xbd483db8	-0.048886985
108	0x3df26b7e	0.11836909
109	0x3ced3700	0.02895689
110	0x3dac4a9a	0.084126666
111	0xbda7c03a	-0.08190961
112	0x3cbc6a40	0.022999883
113	0x3dc2253e	0.0947976
114	0x3db6608c	0.089051336
115	0x3d6530dc	0.0559548
116	0x3db79bce	0.08965264
117	0x3da30582	0.07960035
118	0xbd321aa8	-0.043482453
119	0xbd819c3f	-0.0632863
120	0x3de12204	0.10992816
121	0x3de8c3f4	0.113655
122	0x3c60e380	0.013726115
123	0xbdac1f72	-0.08404435
124	0xbc114ce0	-0.008868426
125	0x3dc0fdd5	0.094234146
126	0x3dd0798c	0.10179433
127	0xbd2bee54	-0.041975334
128	0xbcc0ecf0	-0.02355048
129	0x3d98bf9e	0.07458423
130	0xbddb829c	-0.10718271
131	0xbdd608d2	-0.10450901
132	0x3dc54bce	0.09633599
133	0xbc53d050	-0.012928084
134	0xbc6d3610	-0.014478222
135	0x3dae00c4	0.0849624
136	0xbb12aa00	-0.002237916
137	0xbcf117c0	-0.02943027
138	0xbda986b2	-0.08277644
139	0x3df0bbfe	0.11754607
140	0xbd2b94fc	-0.04189013
141	0x3dec8eba	0.115506604
142	0xbc4e7a10	-0.012602344
143	0xbda3790e	-0.07982074
144	0x3dbe1ede	0.09283231
145	0xbdc838d8	-0.09776467
146	0x3d6417f4	0.055686906
147	0x3d771bec	0.060329363
148	0x3d24a850	0.040199578
149	0x3d8ab10a	0.06772049
150	0x3db3e716	0.087843105
151	0x3d9d9e78	0.07696241
152	0x3dfb85ce	0.122813806
153	0xbdb6da8c	-0.08928403
154	0xbcf6b0b8	-0.030113563
155	0xbda6aa6a	-0.08137973
156	0xbcf26478	-0.029588923
157	0x3c4d2b10	0.012522474
158	0x3d666004	0.05624391
159	0xbd184188	-0.03717187
160	0x3cc06e38	0.023490056
161	0xbde92f46	-0.1138597
162	0x3deac0ac	0.114625305
163	0x3d02565c	0.03182064
164	0x3dfdcfe4	0.123931676
165	0xbd91fb02	-0.07127954
166	0xbdf74ccc	-0.12075195
167	0xba9b9fcf	-0.0011873188
168	0xbd16beac	-0.036802933
169	0xbbcc45c0	-0.006233901
170	0xbdc7bf84	-0.097533256
171	0x3d53824c	0.051637933
172	0x3d581870	0.05275768
173	0x3cef81f0	0.029236764
174	0x3d8accb6	0.06777327
175	0x3c436e80	0.011928201
176	0xbd0be124	-0.034150258
177	0xbd5423b0	-0.051791847
178	0x3de2420c	0.11047754
179	0x3dcfb218	0.101413906
180	0xbdc25a5a	-0.094898894
181	0xbd5561f8	-0.052095383
182	0x3a387400	0.00070363283
183	0x3db9939a	0.09061356
184	0x3d021d64	0.03176631
185	0x3da29eb2	0.07940425
186	0xbdd26070	-0.102723
187	0x3ddcd8b8	0.10783523
188	0xbdbdb3ca	-0.09262808
189	0xbd7185e8	-0.058965594
190	0x3dd6d780	0.10490322
191	0x3d281b3c	0.041041598

gru.bias_hh_l0 f4 [192]
0	0x3d5e55fc	0.05428122
1	0xbdec960c	-0.11552057
2	0x3d50bf68	0.05096379
3	0xbd757e28	-0.059934765
4	0xbdb5c65e	-0.08875726
5	0xbddd3bd6	-0.108024284
6	0x3d9d85dc	0.07691547
7	0x3cf048b8	0.02933155
8	0x3d7acc74	0.061230138
9	0xbdf17db8	-0.11791557
10	0x3cb7e4f0	0.022448033
11	0xbd1c06c8	-0.038092405
12	0xbd2b4c10	-0.041820586
13	0x3d1ec428	0.038761288
14	0xbc99d640	-0.01877892
15	0x3dcd60f8	0.10028261
16	0x3b0b8740	0.0021290332
17	0xbcc7c538	-0.024386033
18	0xbdb2ed9a	-0.08736725
19	0xbddaec96	-0.106896564
20	0x3d912708	0.07087523
21	0x3da7c290	0.08191407
22	0xbd60ee88	-0.05491498
23	0x3d2f0b94	0.04273565
24	0xbd34bbd0	-0.044124424
25	0xbcc8d800	-0.02451706
26	0x3d67e154	0.056611374
27	0x3bdb1760	0.006686136
28	0x3dd0f672	0.10203256
29	0x3dc946fe	0.09827994
30	0xbd212e0c	-0.039350554
31	0xbae7f580	-0.0017697066
32	0xbcefba60	-0.029263675
33	0xbd18e8e8	-0.03733149
34	0x3dc7fd28	0.097650826
35	0xbd5b8840	-0.053596735
36	0x3d2bac90	0.041912615
37	0x3d5fc6f4	0.054633096
38	0x3dc2eb30	0.09517515
39	0xbdd86c18	-0.10567492
40	0xbd63c97c	-0.055612072
41	0xbda26572	-0.079295054
42	0x3dfa3d44	0.12218717
43	0x3df2dde0	0.118587255
44	0xbd6ffb90	-0.058589518
45	0x3c9b2778	0.018939719
46	0xbd6982ec	-0.057009622
47	0x3cbb4530	0.02286014
48	0xbd7be610	-0.0614987
49	0x3dd19650	0.10233748
50	0x3d7664a8	0.060154587
51	0xbde78258	-0.11304158
52	0xbd2f6b24	-0.042826787
53	0x3d8007ba	0.06251474
54	0x3d76fcec	0.0602998
55	0x3c45a7f0	0.012063965
56	0x3dbc115e	0.09183
57	0xbddef882	-0.10887243
58	0x3dbfa0e4	0.09356859
59	0xbb920500	-0.0044561625
60	0x3da86d94	0.08224025
61	0x3d472608	0.048620254
62	0xbda1e782	-0.07905485
63	0xbcfb2d80	-0.030661345
64	0x3d2a7468	0.04161492
65	0x3db0736e	0.086157665
66	0x3cd63218	0.026146933
67	0x3ddbd6d8	0.107343376
68	0x3cb99e48	0.022658482
69	0x3df84a3a	0.121235326
70	0xbd3ce1e4	-0.046113864
71	0x3db00c9a	0.085961536
72	0xbdd3a31e	-0.103338465
73	0x3ca4b310	0.020104915
74	0xbdd1a592	-0.10236658
75	0xbcf77af8	-0.030210003
76	0xbd761984	-0.060082927
77	0x3b948d80	0.0045334697
78	0x3dd81598	0.10550994
79	0x3d7619a0	0.06008303
80	0xbd903754	-0.07041803
81	0xbdd37176	-0.10324375
82	0xbcc849d0	-0.024449259
83	0x3d4bc6a5	0.04974999
84	0xbd3038f8	-0.04302308
85	0x3dda6a70	0.106648326
86	0x3d67c73c	0.05658649
87	0x3dcea30a	0.10089691
88	0xbd2f5d88	-0.042813808
89	0x3de4a3d0	0.11164057
90	0xbddeced2	-0.108792916
91	0xbb8a6160	-0.004223034
92	0x3a441fe2	0.00074815575
93	0xbde29eec	-0.11065468
94	0x3d336998	0.043801874
95	0xbd55fe2c	-0.05224435
96	0x3db26bc4	0.08711961
97	0xbd4638cc	-0.04839401
98	0xbd7bb96c	-0.06145613
99	0xbd811fe6	-0.06304912
100	0x3dea4142	0.11438228
101	0x3dd7fc5e	0.10546182
102	0xbcbd95b8	-0.02314268
103	0xbda3ea82	-0.08003713
104	0x3d2cfbb0	0.042232215
105	0xbbfac3a0	-0.007652715
106	0x3d31c2dc	0.043398723
107	0xbdf4ae6e	-0.11947332
108	0x3c8fa500	0.017534733
109	0xbd9ffdda	-0.0781209
110	0xbdac9fdc	-0.08428928
111	0x3d16d564	0.0368246
112	0x3ded7414	0.11594406
113	0xb92b6000	-0.00016343594
114	0xbddee66a	-0.10883792
115	0xbdcd2a84	-0.10017875
116	0xbdb29f62	-0.08721806
117	0x3d2da5cc	0.042394444
118	0x3dd56934	0.104204565
119	0xbcc3a858	-0.023883983
120	0xbda578dc	-0.08079693
121	0xbd9db8cc	-0.07701263
122	0x3dcd66ee	0.10029398
123	0xbd8c9ea8	-0.06866199
124	0x3c04d220	0.008106738
125	0x3d8a6b21	0.067587145
126	0x3d7cd9b0	0.06173104
127	0x3dc9760a	0.09836967
128	0xbdcf7f8c	-0.101317495
129	0xbd9d131c	-0.076696604
130	0x3c372600	0.0111784935
131	0xbd9c7dec	-0.07641205
132	0xbdb4005c	-0.08789131
133	0x3d91dcb4	0.07122174
134	0xbddda64c	-0.10822734
135	0xbd8edcc6	-0.06975703
136	0xbd627478	-0.055286855
137	0x3d84bd18	0.06481379
138	0x3de110c2	0.109895244
139	0x3dc9d4b8	0.09855026
140	0x3ddf2bb4	0.108970076
141	0x3c45e730	0.012079045
142	0x3da87fc0	0.082274914
143	0xbd710a34	-0.05884762
144	0xbcdd83d8	-0.027040407
145	0x3d7c9084	0.06166126
146	0xbdf1b948	-0.11802918
147	0xb80a6000	-3.299117e-05
148	0x3c695db0	0.014243528
149	0xbda3f84e	-0.08006345
150	0xbda04060	-0.078247786
151	0x3db21026	0.08694486
152	0x3daad8ce	0.083421335
153	0xbdf5003e	-0.11962937
154	0x3ba93000	0.0051631927
155	0x3ca3a498	0.019975945
156	0xbdcd4f9c	-0.1002495
157	0x3ca76830	0.020435423
158	0xbd12d4c4	-0.03584744
159	0xbb2d9080	-0.0026483834
160	0xbcbf62b0	-0.023362488
161	0xbd789cf0	-0.060696542
162	0xbdf2d6b2	-0.11857356
163	0x3d3dbaf0	0.046320856
164	0xbe008f24	-0.12554604
165	0xbdec7cee	-0.11547266
166	0x3d507e08	0.050901443
167	0x3d842dc4	0.064540416
168	0xbdcf10f4	-0.101106554
169	0x3c9bf9b8	0.019039974
170	0x3c7108f0	0.0147116035
171	0x3cafc488	0.021456018
172	0x3de660e2	0.11248948
173	0x3d1ff7cc	0.039054677
174	0x3db35a5e	0.087574705
175	0x3c5631f0	0.013073429
176	0x3df0db2e	0.11760555
177	0x3dc3c402	0.0955887
178	0x3d7e4350	0.062075913
179	0x3d3e22e0	0.04641998
180	0xbc696740	-0.014245808
181	0xbdf49da0	-0.11944127
182	0x3cc906f8	0.024539456
183	0x3d33b690	0.043875277
184	0x3dc0b994	0.09410396
185	0x3d283188	0.04106286
186	0x3d017ca4	0.031613007
187	0xbd9c5c08	-0.07634741
188	0xbdc51ef4	-0.096250445
189	0x3d24b150	0.04020816
190	0x3dc2bf40	0.09509134
191	0xbd1b7318	-0.03795156

gru.weight_ih_l0_reverse f4 [192, 5]
0	0xbd948b5a	-0.07253142
1	0xbcf90a10	-0.030400306
2	0xbdd91f64	-0.106016904
3	0x3c4e1d40	0.012580216
4	0x3d94fd82	0.07274915
5	0xbdd5e506	-0.104440734
6	0xbcc0f560	-0.023554504
7	0xbdcf0b18	-0.10109538
8	0xbd8fe880	-0.07026768
9	0x3c76c040	0.015060484
10	0x3a708300	0.0009174794
11	0xbcb804d8	-0.022463247
12	0xbd2466c8	-0.040137082
13	0xbd286888	-0.041115314
14	0xbdafc2de	-0.0858209
15	0x3d4395a0	0.047750115
16	0xbd773430	-0.060352504
17	0xbbdee6e0	-0.006802425
18	0x3cc7d8f8	0.024395451
19	0x3caacfc0	0.020851016
20	0x3d5ae87c	0.05344437
21	0xbdda68e6	-0.10664539
22	0x3d9f0edc	0.07766506
23	0x3d5e4178	0.054261655
24	0x3d2bfd88	0.041989833
25	0xbcd41800	-0.02589035
26	0x3d1dc744	0.038520113
27	0x3bedb9a0	0.0072547942
28	0xbcccf378	-0.025018439
29	0xbd96d1b6	-0.07364218
30	0xbd482394	-0.048862055
31	0x3db51966	0.08842735
32	0xbc852d40	-0.016256928
33	0x3c2a31c0	0.010387838
34	0xbdff091a	-0.12452908
35	0x3d909a06	0.07060628
36	0xbd4c5cf0	-0.04989332
37	0x3da5d0dc	0.080964774
38	0xbc9338e0	-0.017971456
39	0x3d82230e	0.063543424
40	0xbda91bcc	-0.08257255
41	0xbbc1cf60	-0.0059146136
42	0xbcd39278	-0.025826678
43	0xbc6986a0	-0.0142532885
44	0xbdb4715a	-0.088106826
45	0xbdbd561c	-0.0924494
46	0x3ad6ed80	0.0016397685
47	0x3df9372c	0.12168726
48	0xbd86f6ea	-0.06590064
49	0xbd582c14	-0.05277641
50	0x3ce69010	0.028144866
51	0x3cf15718	0.029460475
52	0x3d8afee2	0.06786896
53	0x3d6806dc	0.056647167
54	0xbd845104	-0.06460765
55	0x3df10b16	0.117696926
56	0xbdbb78ae	-0.09153877
57	0xbdcbecb6	-0.099572584
58	0x3d473ac0	0.048640013
59	0x3d018128	0.031617314
60	0xbdc91300	-0.09818077
61	0x3da80240	0.08203554
62	0xbdb10690	-0.0864383
63	0xbd679fc4	-0.05654885
64	0xbdbbfba0	-0.09178853
65	0x3d813b20	0.06310105
66	0x3dd4ba48	0.10387093
67	0x3dd37ce4	0.10326555
68	0x3d792dc4	0.06083466
69	0x3dc550f4	0.09634581
70	0x3dd0c4a4	0.10193756
71	0xbdb74698	-0.089490116
72	0xbdf1ad00	-0.11800575
73	0x3d2a5d0c	0.041592643
74	0xbdd3e316	-0.103460476
75	0x3c9aaed8	0.0188822
76	0xbdbf97d6	-0.09355132
77	0x3dac9a0c	0.084278196
78	0x3d4bfc48	0.04980114
79	0xbd09801c	-0.03356944
80	0xbd8a5c38	-0.067558706
81	0x3dff4a42	0.124653354
82	0x3c9ad5d8	0.018900797
83	0xbdf7f494	-0.121071965
84	0x3d9e0674	0.077160746
85	0x3dd841a4	0.10559395
86	0xbb65c980	-0.003506273
87	0x3cd46120	0.025925219
88	0x3cfed218	0.03110604
89	0x3d9e8624	0.07740429
90	0xbc2e0e50	-0.01062353
91	0x3a43cf00	0.0007469505
92	0x3dd53a5a	0.1041152
93	0xbdc61800	-0.096725464
94	0x3de2fcde	0.11083387
95	0xbd67943c	-0.05653785
96	0xbdf45556	-0.11930339
97	0x3dfee1f2	0.124454394
98	0x3d989320	0.07449937
99	0x3dd22a9c	0.10262033
100	0xbc3f3d00	-0.011672258
101	0x3ddf749a	0.10910912
102	0x3d4f5f1c	0.050627813
103	0xbbe72b60	-0.0070547312
104	0x3b195340	0.0023395568
105	0x3db534c0	0.08847952
106	0x3d552760	0.052039504
107	0x3d45dae4	0.048304453
108	0xbd3be360	-0.04587114
109	0xbda97650	-0.082745194
110	0x3bab6dc0	0.005231589
111	0xbde9140e	-0.11380778
112	0x3d15fc30	0.036617458
113	0xbd6ab4ec	-0.057301447
114	0x3db6567c	0.08903214
115	0x3de0d2b2	0.10977687
116	0xbdaf09d4	-0.085467964
117	0x3dc09a86	0.09404473
118	0x3d8274cc	0.063699335
119	0xbdc43fe2	-0.09582497
120	0x3df23098	0.11825675
121	0xbd32152c	-0.043477222
122	0x3cd6b038	0.026207075
123	0x3dd7a554	0.10529581
124	0xbd91454a	-0.07093294
125	0x3d5760dc	0.052582607
126	0x3c328a00	0.01089716
127	0x3d058f00	0.03260708
128	0x3cb20a20	0.021733344
129	0xbdeb5d4c	-0.11492404
130	0x3defc766	0.11707954
131	0x3d8a70d8	0.067598045
132	0xbc099930	-0.008398339
133	0x3dd1c9a4	0.10243538
134	0x3d54f4b4	0.05199118
135	0x3daf7614	0.085674435
136	0xbd8972ea	-0.06711371
137	0xbdb5921c	-0.08865759
138	0x3ab01a00	0.0013435483
139	0xbdecdef2	-0.11565961
140	0x3d8ce42a	0.06879456
141	0x3d197604	0.037466064
142	0xbc20eba0	-0.009821802
143	0x3d479130	0.048722446
144	0xbde169e8	-0.11006528
145	0x3c9765b8	0.01848112
146	0x3dd9c712	0.10633673
147	0x3d0a8c98	0.033825487
148	0x3debf386	0.11521058
149	0xbcf732e0	-0.030175626
150	0xbd9c038c	-0.07617864
151	0xbdd34a3e	-0.10316895
152	0x3d6afe78	0.057371587
153	0xbd37f1d4	-0.04490836
154	0x3a7ba800	0.0009599924
155	0x3d2e8c5c	0.042614326
156	0xbc0185a0	-0.007905394
157	0xbdde8f16	-0.10867135
158	0xbdeaed10	-0.11470997
159	0x3c0041b0	0.007828161
160	0x3daf95dc	0.08573505
161	0xbdf94e24	-0.12173107
162	0x3dc87af0	0.097890735
163	0x3b7f9b00	0.00390023
164	0xbb8a89c0	-0.004227847
165	0x3ddaef34	0.106901556
166	0xbd94e688	-0.07270533
167	0xbd4a5c08	-0.049404174
168	0x3d090248	0.03344944
169	0x3c82ca58	0.015965626
170	0x3dc2ec20	0.095176935
171	0x3c9af170	0.018913954
172	0xbd69df7c	-0.057097897
173	0xbc99e8c8	-0.018787757
174	0xbdbdb110	-0.092622876
175	0x3d538de0	0.051648974
176	0xbcfc34e0	-0.030786932
177	0xbd87cb1c	-0.06630537
178	0x3d5a8e6c	0.05335848
179	0x3d8156ae	0.06315361
180	0xbdfca24c	-0.12335643
181	0xbc31ae30	-0.010844752
182	0x3c4d3580	0.012524962
183	0xbdb8d6fa	-0.090253785
184	0x3dd40682	0.10352804
185	0xbdf3403e	-0.118774876
186	0xbd7a6b34	-0.061137393
187	0x3d5d6d24	0.054059163
188	0x3dd4e9aa	0.103961304
189	0xbdb2a950	-0.087237
190	0xbcf420e0	-0.029800832
191	0xbddfe37e	-0.109320626
192	0xbd1c15f0	-0.03810686
193	0xbdc78dc0	-0.097438335
194	0x3d03db5c	0.03219162
195	0x3dedb178	0.11606115
196	0xbdde518c	-0.108553976
197	0xbc52dfc0	-0.012870729
198	0x3c4143e0	0.011795968
199	0x3c89cfa0	0.016822636
200	0xbd1ae364	-0.037814513
201	0x3d9cd72e	0.0765823
202	0xbcb100b0	-0.021606773
203	0xbdb6b948	-0.08922058
204	0x3ca61bb8	0.02027689
205	0xbd843104	-0.064546615
206	0x3df0016a	0.1171902
207	0xbdb8a57c	-0.09015939
208	0x3d88c068	0.066773236
209	0x3dc744d6	0.09729926
210	0xbc147c40	-0.009062827
211	0xbd2e06e0	-0.042487025
212	0x3deec42c	0.116585106
213	0x3ce1a6e0	0.027545393
214	0x3dc08994	0.09401241
215	0x3d89230e	0.06696139
216	0x3db24a82	0.087056175
217	0xbdaa36bc	-0.08311221
218	0x3dd51cda	0.104058936
219	0xbded6d7c	-0.11593148
220	0xbdfdc2c8	-0.12390667
221	0x3df008a4	0.11720398
222	0xbde5d306	-0.1122189
223	0x3d87ff96	0.06640546
224	0x3d9d08a8	0.07667667
225	0x3d4be854	0.049782112
226	0x3dd6e950	0.104937196
227	0xbd4a83b8	-0.049442023
228	0xbdb13cac	-0.0865415
229	0x3cbe4d08	0.02323009
230	0xbdeeaea6	-0.11654405
231	0x3da69646	0.08134131
232	0xbd61701c	-0.055038556
233	0x3dd31e8c	0.10308561
234	0x3dfb26d8	0.12263268
235	0xbd7a03c0	-0.061038733
236	0x3de013e2	0.10941292
237	0x3db20318	0.08691996
238	0x3d318ce4	0.043347254
239	0xbdd957ea	-0.106124714
240	0x3cddfcf8	0.027098164
241	0xbdd4b2b6	-0.10385649
242	0xbd7f21dc	-0.06228815
243	0xbdc69f5e	-0.09698366
244	0x3ddaa8d8	0.10676736
245	0xbd4804e8	-0.048832804
246	0xbda3ab8c	-0.07991704
247	0x3dfedbba	0.12444253
248	0xbd8dea50	-0.06929457
249	0xbda68e1e	-0.081325755
250	0x3d898d5a	0.06716414
251	0x3dbd7cc0	0.0925231
252	0x3d124be4	0.035716906
253	0xbd38f37c	-0.04515408
254	0xbc9ea300	-0.019364834
255	0x3d8ca46a	0.06867297

gru.weight_hh_l0_reverse f4 [192, 64]
0	0x3d5dff88	0.05419877
1	0xbdbbcbc0	-0.091697216
2	0x3b75bf80	0.0037498176
3	0x3dfa196c	0.1221188
4	0x3d555050	0.052078545
5	0xbd52ded4	-0.051482037
6	0xbdad94ee	-0.08475672
7	0xbdc700bc	-0.09716937
8	0x3dbf49d6	0.09340255
9	0xbd1e2f48	-0.03861931
10	0xbdb6917c	-0.08914468
11	0xbc247f70	-0.010040149
12	0x3d0c0e98	0.034193605
13	0xbd028e10	-0.031873763
14	0x3d26c1c4	0.040712133
15	0xbc568b40	-0.013094723
16	0xbd6f8ed8	-0.058485836
17	0x3d23d3c0	0.039996862
18	0xbd4cf758	-0.050040573
19	0x3dfa7d8a	0.12230976
20	0xbc0a1c60	-0.008429617
21	0xbd9a7276	-0.07541363
22	0x3d422b6c	0.04740469
23	0xbd2e1b84	-0.04250671
24	0xbdcbd3d8	-0.09952515
25	0x3c99ef70	0.01879093
26	0xbd252010	-0.04031378
27	0xbca05c08	-0.019575134
28	0x3d42fab8	0.047602385
29	0x3d5dcc28	0.054149777
30	0x3d5095a4	0.05092396
31	0x3bd46c40	0.006482631
32	0x3d98bf36	0.074583456
33	0xbde27c3e	-0.110588536
34	0xbd1ca11c	-0.038239583
35	0x3dbc43aa	0.091925934
36	0x3d2b36e8	0.04180041
37	0xbbe355e0	-0.0069377273
38	0xbbd97ac0	-0.0066369474
39	0xbdaee6b4	-0.08540097
40	0xbccb8340	-0.024842858
41	0x3d913faa	0.07092221
42	0xbdf76e98	-0.12081641
43	0xbde88266	-0.113529965
44	0xbdc0ef1c	-0.094206065
45	0xbdd2340a	-0.10263832
46	0xbdcd3ec4	-0.10021737
47	0x3c3d5760	0.011556476
48	0x3df40020	0.11914086
49	0x3cb701b0	0.022339672
50	0xbcebccc8	-0.02878417
51	0xbd4d80d0	-0.050171673
52	0x3d0cada4	0.034345284
53	0xbda64afe	-0.081197724
54	0xbcc522b8	-0.024064407
55	0xbd696438	-0.05698034
56	0xbd94f330	-0.07272947
57	0x3d9434fc	0.072366685
58	0x3d4a1190	0.049333155
59	0x3d3c0418	0.04590234
60	0xbd809838	-0.062790334
61	0xbcd06cf0	-0.02544257
62	0xbdc71e2a	-0.0972255
63	0x3cf2d7c8	0.029643908
64	0xbdefd552	-0.117106095
65	0xbd160490	-0.036625445
66	0xbde89e5c	-0.1135833
67	0xbb046d00	-0.002020657
68	0xbd29d69c	-0.041464433
69	0xbda4b324	-0.08041981
70	0x3da0d134	0.07852402
71	0xbd453c98	-0.04815349
72	0xbdc6491c	-0.09681913
73	0xbda59fb6	-0.08087103
74	0x3de7252e	0.11286388
75	0xbdfaeb4a	-0.12251909
76	0xbd8a70f4	-0.06759825
77	0xbdb8f5f0	-0.09031284
78	0xbdc731b8	-0.0972628
79	0x3d3363b4	0.043796256
80	0x3d468cbc	0.04847406
81	0x3ddccb74	0.10780993
82	0xbd147c14	-0.036251143
83	0x3d372f38	0.044722766
84	0xbd7298d8	-0.059227794
85	0x3d9e7586	0.077372596
86	0x3c4b78f0	0.01241897
87	0x3d8a98d4	0.06767431
88	0xbd779610	-0.060445845
89	0x3dac308c	0.08407697
90	0x3d1e56c4	0.038656965
91	0xbd4e52fc	-0.05037211
92	0xbd5401b0	-0.05175942
93	0x3d61adcc	0.055097386
94	0xbd510f60	-0.051040053
95	0x3db745cc	0.089488596
96	0x3d94da8a	0.072682455
97	0xbdc609f6	-0.09669869
98	0x3cdd4f00	0.02701521
99	0xbd164208	-0.036684066
100	0xbd251414	-0.04030235
101	0xbde7fc80	-0.113274574
102	0x3dfbb564	0.12290457
103	0x3dd9ea84	0.106404334
104	0xbd7ce5dc	-0.06174265
105	0xbbc55100	-0.006021619
106	0xbdbd69a6	-0.092486665
107	0x3d2b4800	0.04181671
108	0xbd02c27c	-0.031923756
109	0xbcdffa78	-0.027341112
110	0x3d8468e0	0.06465316
111	0xbd2da724	-0.042395726
112	0x3b7c1bc0	0.0038468689
113	0xbd31555c	-0.043294296
114	0xbd962022	-0.073303476
115	0x3d8bed7e	0.068324074
116	0x3cfb2288	0.030656114
117	0xbdf561c2	-0.119815364
118	0xbd8a3040	-0.06747484
119	0xbd8532ea	-0.06503852
120	0x3d535654	0.051596
121	0x3df81334	0.12113038
122	0xbc870d70	-0.0164859
123	0xbdd6a3d6	-0.10480468
124	0x3d3d4c98	0.046215624
125	0x3d8c481a	0.0684969
126	0x3dda030a	0.10645111
127	0xbd9237f6	-0.0713958
128	0x3d84c1f6	0.064823076
129	0x3c6396d0	0.013890937
130	0x3dcfc398	0.101447284
131	0xbd19e144	-0.037568346
132	0xbd9fbe70	-0.07799995
133	0x3c9c7c90	0.019102365
134	0xbdbd0546	-0.092295215
135	0xbdced0e8	-0.100984395
136	0x3d135ec8	0.035979062
137	0x3cb2c900	0.02182436
138	0x3dea4796	0.11439435
139	0xbdf8a1a4	-0.121402055
140	0x3dd0caee	0.10194956
141	0x3d5b7118	0.05357465
142	0xbdac8bf0	-0.084251285
143	0xbd5b56e8	-0.053549677
144	0xbde16aea	-0.1100672
145	0x3ca7c7b8	0.020480976
146	0x3cff59a0	0.031170666
147	0x3ca30448	0.019899502
148	0x3d2b6cf0	0.041851938
149	0xbd987256	-0.07443683
150	0x3db4068c	0.08790311
151	0x3d973e24	0.07384899
152	0xbddcb0dc	-0.10775921
153	0xbb72f2c0	-0.003707096
154	0xbdc1f49e	-0.09470485
155	0x3dc2e142	0.09515621
156	0xbddc8342	-0.10767223
157	0x3de1d37a	0.11026664
158	0x3d9ddd5a	0.07708235
159	0xbd90b208	-0.07065207
160	0x3d196cb4	0.037457183
161	0x3ded30f8	0.11581606
162	0x3da415c8	0.08011967
163	0xbd744c28	-0.05964294
164	0xbce48088	-0.02789332
165	0x3c82c008	0.015960708
166	0xbcbc67d0	-0.02299872
167	0x3d33a6e8	0.043860346
168	0xbdd578a6	-0.104234025
169	0xbd815fa0	-0.06317067
170	0xbd9004b0	-0.07032144
171	0xbc61e870	-0.013788328
172	0x3db9d2b0	0.090733886
173	0x3d04099c	0.032235727
174	0x3d840e24	0.064480096
175	0xbdb2d042	-0.08731128
176	0x3d9f1946	0.077684924
177	0xbd341054	-0.043960884
178	0xbd74ffb0	-0.059814155
179	0x3cd88a00	0.026432991
180	0x3dfb7422	0.1227801
181	0xbcc36cc0	-0.023855567
182	0x3dc2bc3a	0.095085576
183	0x3da13b24	0.07872608
184	0xbd0167fc	-0.031593308
185	0x3d988972	0.074480906
186	0xbc043350	-0.0080688745
187	0x3dbb4f2c	0.0914596
188	0x3d61c6b4	0.05512114
189	0x3c354570	0.0110639185
190	0xbd1a7fb4	-0.037719443
191	0xbdf0762e	-0.11741291
192	0xbd963660	-0.0733459
193	0x3a243400	0.0006263852
194	0xbdf24ad8	-0.118306816
195	0xbce6ab90	-0.02815798
196	0x3df68548	0.1203714
197	0xbde7212e	-0.112856254
198	0x3df2cd7e	0.11855601
199	0x3ddd3c48	0.10802513
200	0xbdddbdec	-0.1082724
201	0xbd9be3f4	-0.07611838
202	0x3ded926a	0.11600192
203	0x3cf703e8	0.03015323
204	0xbd416af4	-0.04722114
205	0x3d3325fc	0.043737397
206	0xbde2ff98	-0.11083907
207	0x3da50bc4	0.08058885
208	0xbdfda4ee	-0.123849735
209	0x3dcade1e	0.09905647
210	0xbd82e48c	-0.06391248
211	0x3cdecad0	0.027196318
212	0xbdd63722	-0.104597345
213	0xbd43eb24	-0.04783167
214	0x3de57ec6	0.11205821
215	0xbcc65320	-0.024209559
216	0x3cafd7c8	0.021465197
217	0x3db30e72	0.087429896
218	0x3c6f0830	0.014589354
219	0xbde57ee0	-0.1120584
220	0xbd49da34	-0.04928036
221	0xbde2989e	-0.11064266
222	0x3d212d18	0.039349645
223	0xbde42248	-0.11139351
224	0x3de549b4	0.111956984
225	0xbcd99198	-0.026558682
226	0x3dac9f3a	0.084288076
227	0xbdf9695c	-0.12178299
228	0xbd3f1be8	-0.046657473
229	0x3dce4666	0.10072021
230	0x3d4c29f8	0.049844712
231	0x3de0101c	0.109405726
232	0x3de14bde	0.11000799
233	0x3dd60600	0.10450363
234	0x3bea8bc0	0.007157773
235	0xbcabc5a0	-0.020968258
236	0xbb5b3c40	-0.003345266
237	0xbd82e430	-0.063911796
238	0x3c8ab930	0.016934007
239	0xbd92f1e4	-0.07175043
240	0x3d7b83f0	0.061405122
241	0xbd8e6f26	-0.06954794
242	0xbc9137d8	-0.017726824
243	0xbdccfbf8	-0.10008997
244	0xbd6de804	-0.058082595
245	0x3cfb19d0	0.030651957
246	0x3b223880	0.0024752915
247	0x3d992cfe	0.07479285
248	0x3d976a10	0.07393277
249	0xbcf22b78	-0.029561743
250	0x3dfc2520	0.123117685
251	0xbd94f536	-0.07273333
252	0x3d839a9a	0.06425972
253	0xbd013928	-0.03154865
254	0x3d33f700	0.04393673
255	0x3d2b6e30	0.04185313

gru.bias_ih_l0_reverse f4 [192]
0	0x3ccdbd68	0.02511473
1	0xbde54344	-0.111944705
2	0xbdbc1602	-0.09183885
3	0x3c23f710	0.010007635
4	0x3dd475fa	0.10374065
5	0xbde1ba38	-0.110218465
6	0xbb603f40	-0.0034217387
7	0xbd93d74c	-0.07218799
8	0xbd979c2c	-0.07402834
9	0x3dae6494	0.085152775
10	0x3df9c98c	0.12196645
11	0x3d5d31f8	0.054002732
12	0xbd217af8	-0.039423913
13	0xbd460f3c	-0.048354372
14	0x3de8d4fa	0.11368747
15	0xbd1c2528	-0.038121372
16	0xbd80a3e6	-0.06281261
17	0xbd137c40	-0.036007166
18	0xba2de500	-0.000663355
19	0x3da1eab8	0.07906097
20	0x3d37f7a8	0.044913918
21	0xbd0612d4	-0.0327328
22	0x3d23d740	0.0400002
23	0x3dd70014	0.10498062
24	0x3d4f5720	0.0506202
25	0xbba69bc0	-0.005084485
26	0xbde7a552	-0.11310829
27	0x3d73e5b0	0.05954522
28	0xbd9b14ce	-0.075723276
29	0xbdb39c78	-0.087700784
30	0xbd970d6e	-0.073756084
31	0x3db756a2	0.08952071
32	0x3dfee6ac	0.12446341
33	0x3de0f830	0.10984838
34	0x3c37fba0	0.011229426
35	0x3ca09fb8	0.01960741
36	0x3dd87ec2	0.10571052
37	0x3ddbbd1a	0.10729428
38	0xbd6396d0	-0.055563748
39	0x3dbccf2c	0.092192024
40	0x3dc5aea2	0.09652449
41	0xbd5036a8	-0.050833374
42	0x3d210530	0.039311588
43	0xbdd8ec98	-0.10592002
44	0x3dc635cc	0.0967823
45	0xbde9a324	-0.1140807
46	0x3dd16f68	0.10226327
47	0x3d12de48	0.035856515
48	0xbb0a5580	-0.002110809
49	0x3c5798f0	0.013159022
50	0xbd8fa38c	-0.07013616
51	0xbd960faa	-0.073272064
52	0xbd2a03b0	-0.041507423
53	0xbd14bc4c	-0.036312386
54	0xbd034a68	-0.03205338
55	0x3df38e5e	0.11892389
56	0xbb14aac0	-0.0022684783
57	0x3b86af40	0.004110247
58	0x3d77d84c	0.06050901
59	0xbcb8cf10	-0.022559673
60	0xbd838f08	-0.064237654
61	0xbdace7a2	-0.08442618
62	0x3da8ab94	0.08235851
63	0x3d185274	0.03718801
64	0x3cef5ce8	0.029219106
65	0xbabce900	-0.0014412701
66	0x3d32e004	0.04367067
67	0x3c9b7670	0.018977374
68	0x3da24dfa	0.07925029
69	0x3dbd7f8a	0.09252842
70	0x3dc95f3a	0.09832616
71	0x3d8c81de	0.06860708
72	0x3dc845f2	0.09778966
73	0xbde4d2b4	-0.11173001
74	0xbcc53bd0	-0.024076372
75	0xbde7a8de	-0.11311506
76	0x3deb5278	0.11490339
77	0x3d27bbf4	0.04095073
78	0xbdd62554	-0.104563385
79	0x3c620410	0.013794914
80	0xbd611850	-0.054954827
81	0xbd4c23d0	-0.04983884
82	0xbd9d8f12	-0.07693304
83	0xbdceeb94	-0.10103527
84	0xbbb35120	-0.0054723173
85	0xbdd09c44	-0.10186055
86	0xbdc6a7fa	-0.09700008
87	0xbc91f530	-0.01781711
88	0xbdd1d078	-0.102448404
89	0x3cfbfed8	0.030761167
90	0xbdb25c2e	-0.08708988
91	0xbcdd6598	-0.027025983
92	0xbdf14f28	-0.11782676
93	0xbdf88b98	-0.121360004
94	0xbdb9dfc6	-0.090758845
95	0x3d8217e2	0.063522115
96	0x3dfc45d0	0.12318003
97	0x3dc302c8	0.09522015
98	0x3dc8573c	0.09782264
99	0xbda98530	-0.082773566
100	0x3dfbd966	0.12297325
101	0x3bef88c0	0.007310003
102	0x3d8a42ce	0.06751023
103	0xbcf5c950	-0.03000322
104	0x3de40120	0.11133027
105	0x3d0a5f08	0.033782035
106	0xbd29d174	-0.041459516
107	0xbd8effe6	-0.069824025
108	0xbda56659	-0.08076162
109	0xbd047c50	-0.032345116
110	0xbbf14b00	-0.007363677
111	0xbd3bf7b4	-0.045890525
112	0xbd7d93c0	-0.061908484
113	0xbdd9e09e	-0.106385455
114	0xbd8e602e	-0.069519386
115	0x3d5c5da8	0.053800255
116	0xbd794d40	-0.060864687
117	0x3d48a308	0.048983604
118	0x3dece554	0.11567178
119	0xbd7da368	-0.061923414
120	0x3d6a7c10	0.05724722
121	0xbb5b8ac0	-0.003349945
122	0xbdf575bc	-0.11985347
123	0xbc4519f0	-0.01203011
124	0xbdd6de48	-0.104916155
125	0x3d7e1674	0.06203313
126	0x3cfdd350	0.03098455
127	0x3d8840c0	0.06652975
128	0xbde8b11c	-0.11361906
129	0x3d608bf0	0.054820955
130	0xbd3360a8	-0.04379335
131	0xbd73176c	-0.05934851
132	0x3de9cca4	0.11415985
133	0x3df8e79a	0.121535495
134	0xbdac2fb4	-0.08407536
135	0x3d33dea0	0.043913484
136	0x3cac8a48	0.021062031
137	0xbdf5ee96	-0.12008397
138	0xbc77bad0	-0.015120223
139	0xbd7784d4	-0.06042941
140	0x3d88f434	0.06687203
141	0xbd742568	-0.059605986
142	0xb9d6e200	-0.00040985644
143	0x3d5d70c4	0.05406262
144	0x3db9f476	0.0907983
145	0x3d9fc510	0.078012586
146	0xbd367e4c	-0.04455404
147	0x3cd305b0	0.025759548
148	0x3dda83fc	0.10669705
149	0x3c9ec350	0.019380242
150	0xbc258060	-0.010101408
151	0x3dd52700	0.10407829
152	0x3d3314d8	0.04372105
153	0xbdbbe252	-0.091740265
154	0xbddce600	-0.107860565
155	0xbde6f5b2	-0.112773314
156	0x3dcfac02	0.1014023
157	0xbd04f784	-0.03246261
158	0x3db2f2c0	0.08737707
159	0xbded7b12	-0.115957394
160	0xbd86090a	-0.06544693
161	0x3da84ff4	0.08218375
162	0x3dfb1256	0.12259357
163	0x39897200	0.00026215613
164	0xbde38653	-0.11109605
165	0xbcddf780	-0.027095556
166	0x3d837fa8	0.06420833
167	0xbd58b094	-0.052902773
168	0xbde9fbd4	-0.114249855
169	0xbc7054f0	-0.014668688
170	0x3bf36ec0	0.007428974
171	0xbb5aba40	-0.0033375174
172	0x3dbd161c	0.09232733
173	0xbb42b6c0	-0.0029710978
174	0xbdfc0ea4	-0.1230748
175	0xbcfcc0b0	-0.0308536
176	0xbc951508	-0.018198505
177	0x3de25146	0.11050658
178	0x3d83fd58	0.06444806
179	0xbdc77a1c	-0.097400874
180	0xbd17442c	-0.03693025
181	0xbdb64fe4	-0.08901957
182	0xbda4a7de	-0.080398306
183	0xbdb9ec46	-0.09078269
184	0x3dce67dc	0.10078403
185	0xbd685e7c	-0.056730732
186	0xbc82ccc0	-0.015966773
187	0xbd07b37c	-0.033130154
188	0x3df149b4	0.11781636
189	0xbc7cca50	-0.015429094
190	0xbd066a6c	-0.032816336
191	0x3c151ed0	0.009101585

gru.bias_hh_l0_reverse f4 [192]
0	0xbd1b1ca4	-0.03786911
1	0xbdd14a16	-0.10219209
2	0xbd8cf508	-0.068826735
3	0xbd43090c	-0.04761605
4	0x3d94f1ea	0.07272704
5	0xbd367e98	-0.044554323
6	0x3d5c0750	0.05371791
7	0x3db7dee4	0.0897806
8	0x3ddc66ba	0.10761781
9	0x3de408f0	0.11134517
10	0x3b3c7680	0.0028757155
11	0x3df37e82	0.11889364
12	0xbde6e182	-0.11273481
13	0xbdba84b0	-0.091073394
14	0xbd1f6834	-0.038917735
15	0x3dba1aaa	0.09087117
16	0x3db564f0	0.08857143
17	0x3deba8dc	0.11506817
18	0x3dd2a0fe	0.10284613
19	0xbde0ab34	-0.109701544
20	0xbd2f76c0	-0.04283786
21	0xbdcabf38	-0.09899753
22	0xbde345d8	-0.11097306
23	0x3df7d64c	0.12101421
24	0x3ccbc668	0.02487488
25	0x3db31364	0.08743933
26	0x3d142b38	0.03617403
27	0xbdf3660c	-0.11884698
28	0xbcd9e3d0	-0.026597887
29	0xbdb2ad76	-0.08724491
30	0x3d03f374	0.032214597
31	0x3d921498	0.07132834
32	0x3ddfb18a	0.10922535
33	0xbc07f8f0	-0.008299097
34	0xbde97c52	-0.11400665
35	0x3de639c4	0.11241487
36	0xbd2328a4	-0.03983368
37	0xbdaffa1c	-0.085926265
38	0xbd56eb74	-0.05247064
39	0xbdd8cfb0	-0.10586488
40	0x3d8a90a4	0.06765869
41	0x3d6095e8	0.05483046
42	0x3d896602	0.067089096
43	0x3d0b2248	0.03396824
44	0xbd7a80e8	-0.06115809
45	0x3de72928	0.11287147
46	0xbd8c6f66	-0.06857185
47	0xbd2ec674	-0.04266973
48	0x3bc98800	0.0061502457
49	0x3d2aadd8	0.041669697
50	0x3c866858	0.016407177
51	0xbd854e44	-0.065090686
52	0x3da3a8b4	0.07991162
53	0xbbf2ba00	-0.007407427
54	0xbd236d58	-0.0398992
55	0xbdd65a26	-0.10466413
56	0x3de64fd8	0.11245698
57	0xbdf4e304	-0.11957362
58	0x3c4ad3e0	0.0123796165
59	0xbd8bee30	-0.0683254
60	0xbdd30546	-0.1030374
61	0xbd0becd0	-0.03416139
62	0xbb4e6300	-0.0031492114
63	0xbdc57f30	-0.096434
64	0x3dfd1762	0.123579755
65	0x3d64536c	0.05574362
66	0x3d83d4de	0.064370856
67	0xbdccddf6	-0.10003273
68	0xbd257e60	-0.040403724
69	0xbc1fb840	-0.0097485185
70	0x3c812b43	0.0157677
71	0xbd13dacc	-0.036097333
72	0xbdea0e96	-0.11428563
73	0x3dc6389c	0.09678766
74	0x3d39f4cc	0.045399472
75	0x3d75c6d4	0.06000407
76	0x3b92e360	0.0044826716
77	0xbdc95ee4	-0.09832552
78	0x3da77a9e	0.08177684
79	0xbd4a6f04	-0.04942228
80	0xbdaf1bee	-0.08550249
81	0x3d938e00	0.07204819
82	0x3c8d88c8	0.017277136
83	0x3dee0802	0.11622621
84	0xbc860da8	-0.016363934
85	0x3db96770	0.09052932
86	0x3c423740	0.011853993
87	0x3d99814a	0.07495363
88	0x3d90faf8	0.070791185
89	0xbd466c58	-0.04844317
90	0xbd271838	-0.04079458
91	0xbdce74fc	-0.10080907
92	0xbb995de0	-0.00468038
93	0xbdebce70	-0.11513984
94	0x3d9e8dba	0.07741876
95	0xbd82994f	-0.063768975
96	0x3d17fa00	0.037103653
97	0x3bfe0980	0.0077525973
98	0x3d822124	0.06353977
99	0xbdd24962	-0.10267903
100	0x3d93d788	0.07218844
101	0xbca17fe8	-0.01971431
102	0x3de77efc	0.11303517
103	0x3dcd7840	0.100327015
104	0xbdd28ed0	-0.102811456
105	0xbd184a54	-0.03718026
106	0x3d02c714	0.031928137
107	0xbd374528	-0.044743687
108	0x3da83127	0.082125
109	0xbc5463f0	-0.01296328
110	0x3d651218	0.05592546
111	0xbd7810d0	-0.06056291
112	0xbdec8206	-0.115482375
113	0xbb35b140	-0.0027724057
114	0xbde5fbb4	-0.11229649
115	0xbddc7524	-0.1076453
116	0xbdbfe5f4	-0.09370032
117	0xbd550c38	-0.052013606
118	0xbc53b860	-0.012922376
119	0x3d750a68	0.059824377
120	0xbce26af0	-0.027638882
121	0xbce50bd0	-0.027959734
122	0x3def891e	0.11696075
123	0x3d663dbc	0.05621122
124	0x3dd45610	0.103679776
125	0xbdb3c72c	-0.087782234
126	0x3d123ab4	0.035700515
127	0x3d31f2d4	0.04344447
128	0xbdd861f6	-0.105655596
129	0xbcc1a130	-0.02363643
130	0x3de03f30	0.10949552
131	0xbda509ce	-0.08058511
132	0x3dd0c426	0.10193662
133	0xbd859ab4	-0.06523648
134	0xbdaea0fe	-0.085268006
135	0xbc5b39d0	-0.013380483
136	0xbd65dfe4	-0.056121722
137	0x3dc43c5a	0.09581824
138	0x3dbf34c0	0.09336233
139	0x3de9ad5c	0.11410019
140	0xbd7390b8	-0.059464186
141	0xbdd5cf68	-0.1043995
142	0x3d826000	0.06365967
143	0x3dafedb2	0.08590259
144	0xbc3362d0	-0.010948852
145	0xbd0a1ee0	-0.03372085
146	0x3d0ec210	0.03485304
147	0xbdbf6918	-0.09346217
148	0x3d485acc	0.048914716
149	0x3d8ee82c	0.06977877
150	0x3da887f0	0.08229053
151	0xbd9988ce	-0.074967965
152	0xbdb33df2	-0.087520495
153	0x3d814722	0.06312396
154	0x3d0b1704	0.033957496
155	0xbcd10688	-0.02551581
156	0xbd889bc8	-0.06670338
157	0xbd8ffdbe	-0.07030819
158	0x3d085554	0.0332845
159	0xbd2c9730	-0.04213637
160	0x3df903dc	0.12158939
161	0x3bb1f800	0.005431175
162	0xbdfead82	-0.12435438
163	0xbcc1e770	-0.023669928
164	0xbd1d4433	-0.038395118
165	0xbd47b7f8	-0.04875943
166	0xbd9a65ea	-0.0753897
167	0xbdf62584	-0.12018874
168	0xbde902e2	-0.11377503
169	0x3da200a4	0.079102784
170	0x3bbacc80	0.005700648
171	0xbd904b84	-0.070456535
172	0x3d18b62c	0.037283108
173	0x3dfeefba	0.12448068
174	0x3d9ca516	0.07648675
175	0xbdb2a68c	-0.087231725
176	0x3dde5ff2	0.10858144
177	0x3cb19688	0.021678224
178	0x3d06643c	0.032810435
179	0xbdbf1e06	-0.093318984
180	0x3c0e1e50	0.008674219
181	0xbd79ea2c	-0.06101434
182	0xbdc97b58	-0.09837979
183	0xbdd6f9e0	-0.104968786
184	0x3dd496c4	0.10380319
185	0xbde5550e	-0.111978635
186	0x3da9fd4a	0.08300264
187	0x3cc98208	0.024598137
188	0x3c6d7390	0.014492884
189	0x3d8bebda	0.068320945
190	0x3d09b3f8	0.033618897
191	0x3d729324	0.059222355
